…
oder.weight', 'cls.predictions.transform.dense.bias']
- This IS expected if you are initializing BertModel from the checkpoint of a model trained on another task or with another architecture (e.g. initializing a BertForSequenceClassification model from a BertForPreTraining model).
- This IS NOT expected if you are initializing BertModel from the checkpoint of a model that you expect to be exactly identical (initializing a BertForSequenceClassification model from a BertForSequenceClassification model).
MultitaskModel(
  (bert): BertModel(
    (embeddings): BertEmbeddings(
      (word_embeddings): Embedding(30528, 768)
      (position_embeddings): Embedding(512, 768)
      (token_type_embeddings): Embedding(2, 768)
      (LayerNorm): LayerNorm((768,), eps=1e-12, elementwise_affine=True)
      (dropout): Dropout(p=0.1, inplace=False)
    )
    (encoder): BertEncoder(
      (layer): ModuleList(
        (0-11): 12 x BertLayer(
          (attention): BertAttention(
            (self): BertSelfAttention(
              (query): Linear(in_features=768, out_features=768, bias=True)
              (key): Linear(in_features=768, out_features=768, bias=True)
              (value): Linear(in_features=768, out_features=768, bias=True)
              (dropout): Dropout(p=0.1, inplace=False)
            )
            (output): BertSelfOutput(
              (dense): Linear(in_features=768, out_features=768, bias=True)
              (LayerNorm): LayerNorm((768,), eps=1e-12, elementwise_affine=True)
              (dropout): Dropout(p=0.1, inplace=False)
            )
          )
          (intermediate): BertIntermediate(
            (dense): Linear(in_features=768, out_features=3072, bias=True)
            (intermediate_act_fn): GELUActivation()
          )
          (output): BertOutput(
            (dense): Linear(in_features=3072, out_features=768, bias=True)
            (LayerNorm): LayerNorm((768,), eps=1e-12, elementwise_affine=True)
            (dropout): Dropout(p=0.1, inplace=False)
          )
        )
      )
    )
    (pooler): BertPooler(
      (dense): Linear(in_features=768, out_features=768, bias=True)
      (activation): Tanh()
    )
  )
  (dropout1): Dropout(p=0.3, inplace=False)
  (cl_value): ClassificationHead(
    (linear1): Linear(in_features=768, out_features=768, bias=True)
    (dropout): Dropout(p=0.3, inplace=False)
    (linear2): Linear(in_features=768, out_features=2, bias=True)
  )
  (cl_start): ClassificationHead(
    (linear1): Linear(in_features=1536, out_features=768, bias=True)
    (dropout): Dropout(p=0.3, inplace=False)
    (linear2): Linear(in_features=768, out_features=1, bias=True)
  )
  (cl_end): ClassificationHead(
    (linear1): Linear(in_features=1536, out_features=768, bias=True)
    (dropout): Dropout(p=0.3, inplace=False)
    (linear2): Linear(in_features=768, out_features=1, bias=True)
  )
  (cl_cross): ClassificationHead(
    (linear1): Linear(in_features=1536, out_features=768, bias=True)
    (dropout): Dropout(p=0.3, inplace=False)
    (linear2): Linear(in_features=768, out_features=2, bias=True)
  )
  (cl_intent_status): ClassificationHead(
    (linear1): Linear(in_features=768, out_features=128, bias=True)
    (dropout): Dropout(p=0.3, inplace=False)
    (linear2): Linear(in_features=128, out_features=2, bias=True)
  )
  (cl_intent_value): ClassificationHead(
    (linear1): Linear(in_features=768, out_features=128, bias=True)
    (dropout): Dropout(p=0.3, inplace=False)
    (linear2): Linear(in_features=128, out_features=2, bias=True)
  )
  (cl_usr_status): ClassificationHead(
    (linear1): Linear(in_features=768, out_features=16, bias=True)
    (dropout): Dropout(p=0.3, inplace=False)
    (linear2): Linear(in_features=22, out_features=3, bias=True)
  )
  (cl_copy_status): ClassificationHead(
    (linear1): Linear(in_features=768, out_features=16, bias=True)
    (dropout): Dropout(p=0.3, inplace=False)
    (linear2): Linear(in_features=22, out_features=4, bias=True)
  )
  (cl_req_status): ClassificationHead(
    (linear1): Linear(in_features=768, out_features=16, bias=True)
    (dropout): Dropout(p=0.3, inplace=False)
    (linear2): Linear(in_features=22, out_features=2, bias=True)
  )
)
/usr/local/lib/python3.10/dist-packages/transformers/optimization.py:306: FutureWarning: This implementation of AdamW is deprecated and will be removed in a future version. Use the PyTorch implementation torch.optim.AdamW instead, or set `no_deprecation_warning=True` to disable this warning
  warnings.warn(
=== TRAINING ===
Script called with args:
Namespace(load_checkpoint_path=None, num_epochs=5, num_total_epochs=5, num_steps_logging=4000)
…
